model2.pth (torch, 251143 bytes, 48 tensors)

unet.ups.0.weight f4 [64, 32, 2, 2]
0	0xbe01bb48	-0.12669098
1	0x3c126cd7	0.008937082
2	0xbe4cf63c	-0.20015806
3	0xbd8f9283	-0.07010367
4	0x3e06db36	0.1316956
5	0xbd9ec9fb	-0.077533685
6	0x3cd13b02	0.025540832
7	0xbc42a52e	-0.011880202
8	0x3bcd7711	0.0062702973
9	0x3c8a4a49	0.016881125
10	0x3e56c243	0.20972542
11	0x3e1a3e1c	0.15062755
12	0xbc86719b	-0.016411593
13	0xbe11a55c	-0.14223236
14	0xbd922889	-0.07136638
15	0xbd942669	-0.07233889
16	0xbdc8c061	-0.09802318
17	0x3be6326d	0.007025054
18	0xbcf151d1	-0.029457958
19	0xbdd97691	-0.10618318
20	0x3a81977f	0.0009887068
21	0xbd043ed4	-0.03228648
22	0x3d66463c	0.056219324
23	0x3d5f5ba3	0.05453075
24	0xbb84dee7	-0.0040548923
25	0xbcfbcdd9	-0.030737804
26	0x3e140bcc	0.14457625
27	0x3cd1aa98	0.02559404
28	0xbd962bfb	-0.07332607
29	0xbc15375e	-0.009107439
30	0xbdd72c98	-0.105065525
31	0xbd62938b	-0.05531649
32	0xbbacde75	-0.0052755424
33	0xbd74d02d	-0.059768844
34	0x3da137e0	0.078719854
35	0xbd105b0d	-0.035243083
36	0xbcd70912	-0.026249442
37	0xbdb6a5ad	-0.08918319
38	0xbdb7e569	-0.089793034
39	0xbe0674a2	-0.1313043
40	0xbe376106	-0.17908105
41	0x3d830c43	0.06398823
42	0xbeb300c0	-0.3496151
43	0x3d2a008b	0.041504424
44	0x3e2e67d3	0.17031793
45	0x3d3df570	0.046376646
46	0x3d8a5e07	0.067562155
47	0xbbdf776b	-0.0068196557
48	0x3e256fea	0.16155973
49	0x3d41da22	0.04732717
50	0x3e0c62ea	0.13709608
51	0x3e19b8ad	0.15011854
52	0xbd6a5aaa	-0.05721537
53	0xbd0defb1	-0.034652416
54	0xbe42c28e	-0.19019529
55	0x3dada55d	0.08478806
56	0x3c58ba3c	0.0132279955
57	0x3ba04d47	0.0048920247
58	0x3da0a32c	0.078436226
59	0xbda7aa4b	-0.08186778
60	0xbddf9119	-0.10916347
61	0x3d426f68	0.047469527
62	0xbda7caac	-0.081929535
63	0xbdc11585	-0.09427933
64	0xbcf867e3	-0.030322975
65	0xbd64431a	-0.055728056
66	0xbd5e5cae	-0.054287605
67	0xbc42dc7c	-0.011893388
68	0xbdf5a63c	-0.11994597
69	0x3da13040	0.07870531
70	0x3df443a9	0.11926968
71	0x3e9391b6	0.28822106
72	0xbd238bf8	-0.039928406
73	0xbbc74141	-0.006080777
74	0x3d3b12f9	0.04567239
75	0xbca8d7ea	-0.020610768
76	0xbd2920d0	-0.041291058
77	0xbe01d8f7	-0.12680422
78	0x3c3011e4	0.010746453
79	0xbd55e2b2	-0.052218147
80	0x3dca5850	0.098801255
81	0x3cdce2c1	0.026963593
82	0xbc90f397	-0.017694278
83	0xbde2a65c	-0.11066887
84	0xbd90e5b9	-0.07075066
85	0xbd9df67f	-0.07713031
86	0xbddf0ab9	-0.10890717
87	0xbdaf0a14	-0.08546844
88	0xbe0c379b	-0.13693087
89	0x3def03c8	0.11670643
90	0xbe476470	-0.19471908
91	0xbd705ea9	-0.058684025
92	0x3ce8c36c	0.028413497
93	0xbd7979a3	-0.060907017
94	0x3bc7984f	0.0060911546
95	0xbc8346d2	-0.01602498
96	0x3d11a473	0.03555722
97	0x3dad760f	0.084697835
98	0xbd16da43	-0.036829244
99	0x3cf7c2aa	0.03024419
100	0xbdfd0dfc	-0.12356183
101	0xbd79607f	-0.06088304
102	0xbe667a3f	-0.2250757
103	0xbbdcc478	-0.006737288
104	0x3dc8d95f	0.09807085
105	0xbda92eec	-0.08260903
106	0x3e02b7b0	0.12765384
107	0xbda4e219	-0.08050937
108	0xbcabb053	-0.020958101
109	0xbd770432	-0.060306735
110	0xbd34767c	-0.044058308
111	0x3d961761	0.07328678
112	0x3e6b50cc	0.2298004
113	0x3ded20ac	0.11578497
114	0xba8448a6	-0.0010092452
115	0x3d4aed83	0.049542915
116	0x3e02f038	0.12786949
117	0xbca0d8e3	-0.01963467
118	0x3d964482	0.073372856
119	0x3db45a5c	0.08806297
120	0xbe5265b3	-0.20546608
121	0xbde2c4a6	-0.11072664
122	0xbde68766	-0.11256294
123	0x3a00b50b	0.000490979
124	0x3d8938e4	0.06700304
125	0xbcffd71f	-0.031230507
126	0x3dba1f11	0.09087957
127	0xbd5f7e3b	-0.054563742
128	0x3e86be18	0.26316905
129	0x3ea04788	0.31304574
130	0x3df494ee	0.119424686
131	0x3e6eddfa	0.23326865
132	0x3d8c99fc	0.06865308
133	0x3b3d6a3b	0.002890243
134	0x3ce359bb	0.027752748
135	0x3cf83e52	0.030303154
136	0x3dd93fed	0.10607896
137	0x3db2e99d	0.087359644
138	0x3e0a15e1	0.13484909
139	0x3e024072	0.12719896
140	0xbd929228	-0.07156783
141	0xbc4d56f9	-0.012532943
142	0x3e0744a9	0.13209786
143	0x3df06fb6	0.11740057
144	0xbd8ba154	-0.0681788
145	0x3d2b7217	0.04185685
146	0xbda9d2a9	-0.08292133
147	0xbd6be01e	-0.05758678
148	0x3e15251c	0.14564937
149	0x3c136f04	0.008998636
150	0x3c36c0a5	0.0111543285
151	0x3dbdbc50	0.092644334
152	0x3db8302e	0.089935645
153	0xbb8e8b33	-0.00435009
154	0x3da3bf49	0.07995469
155	0xbbfe71b2	-0.0077650184
156	0xbc8ec864	-0.017429538
157	0xbd675fec	-0.056487963
158	0x3cd21a2b	0.025647243
159	0xbd3553eb	-0.044269484
160	0xbde15a6c	-0.11003575
161	0xbdab8969	-0.08375818
162	0xbdf9d02f	-0.12197911
163	0xbd2e38ff	-0.042534824
164	0xbb79024c	-0.0037995754
165	0xbd337fb0	-0.043822944
166	0xbc1f4d0f	-0.009722962
167	0xbd92db4d	-0.071707346
168	0x3de62864	0.11238173
169	0x3c7cf3d6	0.015438994
170	0x3dd1f758	0.10252255
171	0x3e32ea68	0.17472231
172	0xbe170467	-0.14747773
173	0xbe24ddb2	-0.16100195
174	0xbe27327e	-0.16327855
175	0xbd9fa741	-0.07795573
176	0xbe0487d1	-0.12942435
177	0xbd27eb88	-0.040996104
178	0x3cd4d139	0.025978671
179	0xbc43f13b	-0.011959369
180	0x3e66bb3c	0.22532362
181	0x3e48fe34	0.19628221
182	0x3e2c1030	0.1680305
183	0x3d687b5e	0.056758277
184	0xbcb9dd67	-0.02268858
185	0xbb22eff8	-0.002486227
186	0xbb6027f9	-0.0034203513
187	0xbd7ce66b	-0.06174318
188	0xbdbc4a09	-0.091938086
189	0xbd57b9b4	-0.052667335
190	0xbe1f6542	-0.1556597
191	0xbe1e5df2	-0.15465525
192	0x3da09eb1	0.07842768
193	0x3d6aaad5	0.057291824
194	0x3cf7118b	0.030159732
195	0xbd2af360	-0.041736007
196	0x3d779eed	0.060454298
197	0x3dae2966	0.0850399
198	0xbcf475ec	-0.029841386
199	0xbc9f3e44	-0.01943887
200	0xbd2c161e	-0.04201328
201	0x3d016f64	0.03160037
202	0x3deb3c88	0.11486155
203	0x3e11a4af	0.14222978
204	0x3d83d9e5	0.064380445
205	0x3db08819	0.086197086
206	0x3ddc1ea0	0.10748029
207	0x3dafff4e	0.085936174
208	0xbe1c4c1f	-0.15263413
209	0xbe36785e	-0.17819354
210	0xbdfa111c	-0.122102946
211	0xbdea0477	-0.11426633
212	0x3e4e75f9	0.2016219
213	0x3e08fc15	0.13377412
214	0x3e03a094	0.12854224
215	0x3db3ae80	0.087735176
216	0xbc9a45bc	-0.01883208
217	0xbd3efb5e	-0.04662644
218	0xbd528440	-0.051395655
219	0xbc19b7b2	-0.009382175
220	0xbdfd1804	-0.12358096
221	0xbe5e1333	-0.21687011
222	0xbe3f18cb	-0.18661802
223	0xbe49731e	-0.1967282
224	0xbd0c3c3b	-0.034237128
225	0x3c9a1553	0.018808996
226	0x3de5f77d	0.11228845
227	0xbd71e0d6	-0.05905231
228	0x3d85a1f2	0.06525029
229	0x3d627663	0.055288684
230	0x3d809c1f	0.06279778
231	0x3dc50f9d	0.096221186
232	0xbd7ccfc1	-0.061721567
233	0x3d2f0872	0.042732663
234	0x3d3d8eb5	0.046278674
235	0xbd423959	-0.047417972
236	0x3e15d53a	0.1463212
237	0x3df37d7f	0.11889171
238	0x3d1c4eb1	0.038160983
239	0x3d8055d1	0.06266368
240	0x3d52ffec	0.051513597
241	0xbd3976fb	-0.045279484
242	0x3d504ba3	0.050853383
243	0xbe0b532e	-0.1360595
244	0x3e4c05eb	0.19924133
245	0x3e0ac91c	0.1355328
246	0x3d33e25c	0.043917045
247	0x3e3c1ba4	0.18369919
248	0xbd819683	-0.06327536
249	0xbe5521b9	-0.20813645
250	0x3cf642da	0.030061174
251	0xbd0f2b21	-0.03495324
252	0x3e05e0eb	0.1307408
253	0x3df5a680	0.11994648
254	0x3e093a5e	0.13401172
255	0x3cafa023	0.021438664

unet.ups.0.bias f4 [32]
0	0xbeac0886	-0.33600253
1	0x3d873c51	0.06603301
2	0x3ec33d67	0.38132784
3	0xbe4b3c01	-0.19847108
4	0x3f5d744e	0.8650559
5	0x3d122841	0.03568292
6	0xbe8fd650	-0.28093195
7	0xbe9154fc	-0.2838515
8	0xbd5447d0	-0.0518263
9	0x3e1f5801	0.15560915
10	0xbe8a454f	-0.27006003
11	0x3d41fa36	0.04735776
12	0xbf078996	-0.52944314
13	0x3e01850d	0.12648411
14	0x3e8e4b26	0.2779171
15	0xbd9bb479	-0.07602782
16	0x3e95726f	0.29188868
17	0x3e50b60a	0.20381942
18	0xbe3a78d4	-0.18210155
19	0x3f57a550	0.8423662
20	0x3f0349cd	0.51284486
21	0x3e8c5157	0.27405807
22	0x3d58ec76	0.05295988
23	0x3df76a39	0.12080807
24	0x3ebcd916	0.36884373
25	0x3ec17547	0.37784788
26	0xbeb60cc3	-0.3555661
27	0xbebc3dd0	-0.3676591
28	0xbe0db31e	-0.13837859
29	0xbe0b7202	-0.1361771
30	0x3cb2bedc	0.021819524
31	0xbecf1b3c	-0.40450466

unet.ups.1.conv.0.weight f4 [32, 64, 3, 3]
0	0xbd2856fb	-0.041098576
1	0xbd83e4c9	-0.06440122
2	0x3dc2f2c8	0.09518963
3	0xbdb9bfe5	-0.09069804
4	0xbe0280fa	-0.12744513
5	0xba203bbb	-0.0006112416
6	0xbd7c3129	-0.06157032
7	0xbd65afa8	-0.056075722
8	0x3d009457	0.031391468
9	0x3dea79c4	0.11449006
10	0x3db53377	0.08847707
11	0x3d3896d1	0.045065705
12	0x3d580c7c	0.05274628
13	0x3d728a6c	0.05921404
14	0x3d4b7e05	0.04968073
15	0x3d4255c4	0.047445074
16	0x3d479573	0.04872651
17	0xbbd8a30c	-0.0066112336
18	0x3cdabff7	0.026702864
19	0x3d18058b	0.03711466
20	0x3d58b063	0.05290259
21	0x3dab4709	0.08363158
22	0x3dcd9ab7	0.10039275
23	0x3de4f556	0.111796066
24	0x3ced59a5	0.02897341
25	0x3dca1454	0.098671585
26	0x3de41770	0.11137283
27	0xbda291c6	-0.0793796
28	0xbdbc8d44	-0.09206632
29	0xbe00bbf1	-0.12571694
30	0xbd3b3ece	-0.045714192
31	0xbd803d7c	-0.06261727
32	0xbda6bb37	-0.08141177
33	0x3b5d9a80	0.0033814013
34	0xbd26ab0d	-0.04069047
35	0x3d653d32	0.055966564
36	0xbc497136	-0.012295058
37	0xbbfa6b51	-0.0076421876
38	0x3cbca87d	0.02302956
39	0xbd1b823d	-0.037966
40	0xbd3b666c	-0.045751974
41	0xbc8973b9	-0.016778814
42	0xbcc72391	-0.024308952
43	0xbd50707e	-0.05088853
44	0xbda74134	-0.081667334
45	0x3d898693	0.06715121
46	0x3db7938a	0.08963688
47	0x3c5ca4f5	0.013467063
48	0x3d4fa3d7	0.05069336
49	0x3dba44b7	0.090951376
50	0x3d18166b	0.037130754
51	0x3ab16da7	0.0013536707
52	0x3d08c9af	0.033395465
53	0x3d566b34	0.05234833
54	0xbb377219	-0.0027991591
55	0xbd50c138	-0.050965518
56	0xbddf8c45	-0.10915426
57	0x3adb480c	0.0016729846
58	0xbd85850c	-0.06519517
59	0xbd987327	-0.074438386
60	0xbda90ff3	-0.08254995
61	0xbd83028c	-0.0639697
62	0xbda465c2	-0.08027221
63	0x3cb75b49	0.022382395
64	0x3c7d1da8	0.015448965
65	0xbe01c6b9	-0.12673463
66	0x3d8cc15e	0.06872819
67	0x3dec2e28	0.11532241
68	0xbd01877f	-0.03162336
69	0x3cf74e55	0.030188719
70	0xbcafbd03	-0.021452432
71	0xbdcf381c	-0.10118124
72	0x3e02c1c2	0.12769225
73	0x3e19cbbb	0.15019123
74	0x3e5814a9	0.21101631
75	0x3d60e321	0.054904107
76	0x3cf2b0b7	0.02962528
77	0x3df6feca	0.12060316
78	0x3dee534d	0.11636982
79	0x3dd39f3f	0.10333108
80	0x3de1a55e	0.110178694
81	0xbc8ed9af	-0.017437784
82	0x3d534212	0.05157668
83	0x3b97a7f0	0.004628174
84	0x3b0b2aba	0.0021235184
85	0x3cbd2a34	0.023091413
86	0x3d36305b	0.04447971
87	0xbd0ba1d7	-0.03408989
88	0x3ccc6680	0.02495122
89	0x3c9c252d	0.019060696
90	0xbdc921b0	-0.098208785
91	0x3d5132ff	0.051074024
92	0x3c1a6b99	0.009425067
93	0xbd098ebc	-0.033583388
94	0x3d705d6f	0.058682855
95	0xbb53151b	-0.0032208625
96	0xbda383b1	-0.079841025
97	0x3bbc791b	0.0057517416
98	0x3c055d1d	0.008139876
99	0x3ce450fd	0.02787065
100	0x3d4fb780	0.05071211
101	0x3da6d003	0.08145144
102	0xbbb5bc7c	-0.0055461507
103	0xbd1aa4c9	-0.037754808
104	0x3d699f18	0.05703649
105	0xbaabcedf	-0.0013107917
106	0xbce83365	-0.02834482
107	0xbcbc546f	-0.02298948
108	0xbd45d3bc	-0.04829763
109	0xbd1c4962	-0.03815592
110	0xbdf6c4fd	-0.12049291
111	0xbdd0feae	-0.10204826
112	0xbdae2552	-0.08503212
113	0xbd98c7bc	-0.07459971
114	0xbdcd0d96	-0.10012357
115	0xbde34a85	-0.11098198
116	0xbe17ebae	-0.14835998
117	0x3ce96fc2	0.028495673
118	0x3aa35ab4	0.0012462945
119	0xbce51aa7	-0.02796681
120	0xbd35ab3a	-0.044352747
121	0xbcf46dcd	-0.029837513
122	0xbd1fc830	-0.039009273
123	0x3ca6bf32	0.02035484
124	0xbca6d6b8	-0.020366058
125	0x398e2365	0.00027110722
126	0xbdfa599d	-0.122241236
127	0xbda9151a	-0.08255978
128	0xbe0e4df7	-0.13896929
129	0xbe184c4e	-0.14872858
130	0xbe14fbfd	-0.14549251
131	0xbdf949a5	-0.1217225
132	0xbe11185c	-0.14169449
133	0xbe1c2062	-0.15246728
134	0xbdf94794	-0.121718556
135	0x3c709752	0.014684515
136	0xbd3b8c92	-0.045788355
137	0xbdabc9da	-0.083881095
138	0xbd08f49c	-0.033436403
139	0xbdbdbff6	-0.09265129
140	0xbdd5421c	-0.10413
141	0xbd82fbaf	-0.06395661
142	0xbdb65736	-0.08903353
143	0xbe309aec	-0.17246598
144	0xbc99b438	-0.018762693
145	0x3ba9bf9f	0.0051803137
146	0x3da16f56	0.07882564
147	0x3cd46395	0.02592639
148	0xbb48f740	-0.003066495
149	0x3db96ab2	0.09053554
150	0x3d79e8e6	0.061013125
151	0xbcc54817	-0.024082227
152	0x3da061b3	0.07831135
153	0xbd0d5d7d	-0.034512985
154	0xbd5871fe	-0.052843086
155	0x3c784575	0.015153279
156	0xbdbd77bf	-0.092513554
157	0xbce275a2	-0.027643982
158	0x3c17b54b	0.009259532
159	0xbd02a298	-0.031893343
160	0xbcd86daf	-0.026419489
161	0xbbf7d47f	-0.0075631733
162	0xbc83c68c	-0.016085885
163	0xbd47d76c	-0.048789427
164	0xbd95fa17	-0.073230915
165	0xbc92c286	-0.017915022
166	0xbdeeac2f	-0.11653935
167	0xbdf34b45	-0.11879591
168	0xbd9d6432	-0.07685126
169	0xbe5574c5	-0.20845325
170	0xbe45a61d	-0.19301648
171	0x3d8a0908	0.06740004
172	0x3d7fa29a	0.06241093
173	0x3d223278	0.039598912
174	0x3d9cb1e9	0.07651121
175	0x3dc04339	0.09387822
176	0x3da2f860	0.0795753
177	0x3cd6690b	0.026173135
178	0x3d84e0e1	0.06488205
179	0xbb110742	-0.002212957
180	0xbb26bff3	-0.0025444
181	0xbc02fe64	-0.007995222
182	0x3d60d8d4	0.054894283
183	0xbc041924	-0.008062635
184	0x3d64ecb9	0.05588982
185	0x3d2456fb	0.040122014
186	0x3b13bc64	0.002254271
187	0x3c6d6e28	0.014491595
188	0xbd224ea1	-0.039625768
189	0xbc80a265	-0.015702436
190	0xbbefbc1a	-0.0073161246
191	0xbd97c7ef	-0.07411181
192	0xbd94f267	-0.07272797
193	0xbde7507b	-0.11294647
194	0xbd9114f4	-0.070840746
195	0xbdae5e92	-0.085141316
196	0xbd912a0c	-0.07088098
197	0xbdae0b31	-0.08498228
198	0xbc982cf9	-0.018576132
199	0xbd55db99	-0.052211378
200	0xbdccdf65	-0.100035466
201	0x3d936a3c	0.07197997
202	0x3d577fb9	0.05261204
203	0xbd83ddbe	-0.06438778
204	0x3d4c783d	0.049919356
205	0x3d00fc3e	0.031490557
206	0xbd59eee2	-0.053206332
207	0x3d381a2b	0.04494683
208	0xbcc53624	-0.024073668
209	0x3cb15564	0.021647163
210	0x3c9767c6	0.0184821
211	0x3ced8417	0.02899365
212	0xbbdc9318	-0.006731402
213	0xbd1baff6	-0.038009606
214	0x3b53565d	0.0032247521
215	0xbd6281b9	-0.055299494
216	0x3cb8ca04	0.022557266
217	0xbd49199e	-0.049096696
218	0xbd496979	-0.049172852
219	0x3db2fee6	0.08740024
220	0xbd3cad16	-0.046063505
221	0xbd339cb4	-0.043850616
222	0x3d2befe7	0.041976836
223	0xbd519e89	-0.05117658
224	0xbbef9035	-0.007310892
225	0xbcc49824	-0.023998328
226	0xbdaa7f26	-0.08325033
227	0x3c095483	0.008381966
228	0xbda8eb1d	-0.08247969
229	0xbda4e665	-0.08051757
230	0xbc493d6d	-0.012282711
231	0xbd9462ad	-0.072453834
232	0xbdbc3772	-0.09190263
233	0xbd44baff	-0.048029896
234	0xbe21eacd	-0.15812226
235	0xbdacc0e7	-0.08435231
236	0xbd831d6c	-0.06402096
237	0xbd8a315a	-0.06747694
238	0xbddf28fd	-0.1089649
239	0x3c0e3747	0.008680171
240	0xbcaaf28d	-0.02086761
241	0xbd0122ca	-0.031527318
242	0x3d1d17ad	0.038352657
243	0x3ddfa4c1	0.10920096
244	0x3dd1832c	0.10230097
245	0x3de32bc6	0.110923335
246	0x3d9f865f	0.07789301
247	0x3d74163c	0.059591517
248	0x3da96b5f	0.082724325
249	0x3d8c6205	0.06854633
250	0x3e08d912	0.13364056
251	0x3db34f6e	0.087553844
252	0x3b84e0f0	0.004055135
253	0x3da50f39	0.08059544
254	0x3d82a0f0	0.06378353
255	0xbc74156f	-0.014897688

unet.ups.1.conv.0.bias f4 [32]
0	0x3d631cc5	0.05544736
1	0xbc10a04d	-0.008827281
2	0xbbf77f75	-0.007553036
3	0xbc8aafcb	-0.016929528
4	0xbd01a432	-0.03165073
5	0xbd5cc4a0	-0.053898454
6	0x3cda300e	0.026634242
7	0xbaaa906a	-0.001301301
8	0xbcd381c2	-0.02581871
9	0x3c8da3bd	0.01728999
10	0xbd7b5778	-0.061362714
11	0x3bda587c	0.00666338
12	0xbd195f2a	-0.03744427
13	0xbd9c25f9	-0.0762443
14	0x3bc8f178	0.006132301
15	0x3d11bd3d	0.035580862
16	0xbdab6558	-0.08368939
17	0xbd0f954a	-0.035054483
18	0x3d8d90bd	0.06912372
19	0xbce8a2bc	-0.02839791
20	0x3d7ce761	0.061744098
21	0x3ced569a	0.028971959
22	0x3d97eef0	0.074186206
23	0x3c833b7e	0.016019579
24	0x3e02e109	0.12781157
25	0xbc989670	-0.018626422
26	0xbd7e66c3	-0.06210972
27	0x3c5d2891	0.013498441
28	0x3c7008d2	0.01465054
29	0x3cf8d03a	0.030372728
30	0x3ca5fe63	0.020262903
31	0xbd30eba3	-0.04319347

unet.ups.1.conv.1.weight f4 [32]
0	0x3f87acec	1.0599647
1	0x3f8268b1	1.0188199
2	0x3f86de18	1.0536528
3	0x3f90972e	1.1296136
4	0x3f7fdf6a	0.9995028
5	0x3f7e77df	0.9940166
6	0x3f8eab67	1.1146058
7	0x3f81ae98	1.0131407
8	0x3f890d3e	1.0707166
9	0x3f88866f	1.0666026
10	0x3f84be03	1.0370487
11	0x3f851d0b	1.0399488
12	0x3f86e4eb	1.053861
13	0x3f9671b3	1.1753448
14	0x3f8e11a3	1.1099132
15	0x3f7f27a5	0.9966987
16	0x3f8687ce	1.0510194
17	0x3f8a3be4	1.0799527
18	0x3f7852fc	0.97001624
19	0x3f89424c	1.0723357
20	0x3f996068	1.1982546
21	0x3f96d07b	1.1782373
22	0x3f8b1096	1.0864437
23	0x3f87a831	1.0598203
24	0x3f8cc299	1.0996886
25	0x3f80e5ff	1.0070189
26	0x3f8505d3	1.0392402
27	0x3f8122d6	1.0088756
28	0x3f915c2a	1.1356251
29	0x3f8f2ea2	1.1186106
30	0x3f8a69e3	1.0813564
31	0x3f89c15c	1.0762134

unet.ups.1.conv.1.bias f4 [32]
0	0xbeaf501d	-0.3424081
1	0xbd823a27	-0.06358748
2	0xbd17a466	-0.037022017
3	0xbdbd875b	-0.09254333
4	0xbdf21355	-0.118200935
5	0x3e80ebd3	0.2517992
6	0xbd526840	-0.05136895
7	0xbe9470b7	-0.28992245
8	0x3da558a9	0.08073551
9	0x3d7bfdcc	0.061521336
10	0x3df737fe	0.120712265
11	0xbcf2252d	-0.029558742
12	0x3dfa965f	0.12235712
13	0x3cb35f69	0.021896081
14	0x3e7a2974	0.24429876
15	0xbe48a857	-0.19595467
16	0x3daf99f2	0.085742846
17	0xbdd1bdfb	-0.10241314
18	0xbc955cdf	-0.018232761
19	0xbd18afbc	-0.03727697
20	0xbda301b1	-0.07959307
21	0x3e235b5a	0.15952817
22	0x3e4da4f0	0.2008245
23	0x3e8e489f	0.2778978
24	0x3ecdc6a5	0.40190616
25	0xbd57594c	-0.052575395
26	0xbe4bd410	-0.19905114
27	0x3dc5a026	0.096496865
28	0xbd907104	-0.07052806
29	0x3d1a7cbe	0.03771662
30	0xbdd6362a	-0.1045955
31	0xbe8fdba5	-0.28097263

unet.ups.1.conv.1.running_mean f4 [32]
0	0xc038dfcf	-2.8886602
1	0x3fb06368	1.3780336
2	0x3fe35252	1.7759497
3	0xc033366d	-2.800197
4	0x3ee4392d	0.44574872
5	0xbf9c3194	-1.220263
6	0xbf3ac3b1	-0.7295485
7	0xc09d108b	-4.9082694
8	0xc097165d	-4.72148
9	0xc076dc3c	-3.857192
10	0xbfecd89c	-1.8503604
11	0xbfb7546a	-1.4322636
12	0xc0fc6182	-7.886903
13	0x3fa8f821	1.3200723
14	0x4083ac5a	4.114789
15	0xc0353276	-2.831205
16	0x40a329b2	5.0988398
17	0xbfef6c72	-1.870497
18	0x3f7f16f7	0.99644417
19	0x3eaaeb3e	0.333826
20	0xc03c6e2b	-2.944224
21	0xbf686ced	-0.9079121
22	0xc003ff08	-2.0624409
23	0xc03bc4d0	-2.9338875
24	0xc0371e58	-2.861227
25	0x3e9a4788	0.301327
26	0xbfb61462	-1.422497
27	0xbf9851e2	-1.1899989
28	0xc0184212	-2.3790326
29	0xc0abfa17	-5.3742785
30	0x3fe0de93	1.7567924
31	0x4088f16a	4.2794695

unet.ups.1.conv.1.running_var f4 [32]
0	0x411ef5dc	9.935024
1	0x41293d5b	10.577479
2	0x4126c777	10.423697
3	0x419e1d23	19.764227
4	0x410547cb	8.330028
5	0x413071e6	11.027807
6	0x4137344c	11.450268
7	0x40fb9ea6	7.8631163
8	0x41052247	8.3208685
9	0x4102efc8	8.18354
10	0x410522c9	8.320992
11	0x40b47776	5.6395826
12	0x418470a2	16.554996
13	0x4046f3a5	3.108621
14	0x4152e41b	13.18069
15	0x40adde17	5.4333606
16	0x40f0142e	7.5024633
17	0x40e522dc	7.1605053
18	0x41051d8f	8.319716
19	0x412aee3d	10.683164
20	0x41303e3f	11.015197
21	0x415e578f	13.896377
22	0x415459b8	13.271904
23	0x410976ff	8.591552
24	0x411fa338	9.977348
25	0x41168a05	9.408696
26	0x41185128	9.519814
27	0x4174356a	15.263041
28	0x41a2a9e9	20.332964
29	0x412ab655	10.669515
30	0x4131749e	11.090971
31	0x412ae031	10.679734

unet.ups.2.weight f4 [32, 16, 2, 2]
0	0x3d9f88b2	0.077897444
1	0x3dd43b15	0.103628315
2	0x3d1b03c9	0.037845407
3	0x3e15f854	0.14645511
4	0x3d99c646	0.07508521
5	0x3e346469	0.17616428
6	0x3dfde4ae	0.12397133
7	0x3e266831	0.16250683
8	0x3d89ac0b	0.06722268
9	0x3e8286fc	0.2549361
10	0x3d94ea99	0.072713085
11	0x3e846302	0.25856787
12	0xbbd6ca7d	-0.0065549
13	0xbe0b0a5a	-0.13578168
14	0x3dbb746e	0.091530666
15	0x3d9c6efa	0.076383546
16	0x3e844749	0.25835636
17	0x3dbcdc58	0.09221715
18	0x3e57c3c0	0.21070766
19	0x3da96a95	0.08272282
20	0x3dd4cda3	0.103907846
21	0x3e1143bb	0.14185993
22	0x3db64407	0.08899694
23	0x3e09da93	0.13462286
24	0xbe4e3924	-0.20138985
25	0xbd96fb34	-0.07372132
26	0xbe2914bb	-0.16511814
27	0xbe35428a	-0.17701164
28	0x3e1a7a30	0.15085673
29	0x3c5e4786	0.013566857
30	0xbd4fcac7	-0.050730493
31	0x3dd707e8	0.10499555
32	0x3db1f095	0.086884655
33	0x3e09ff49	0.1347629
34	0x3e13f967	0.14450608
35	0xbbc5932a	-0.006029506
36	0xbe6193eb	-0.22029082
37	0xbe038fcf	-0.12847827
38	0xbe82e9f8	-0.2556913
39	0xbdfe585d	-0.12419198
40	0x3ba3d8cd	0.00500021
41	0xbc689eb9	-0.014197999
42	0x3e5c8675	0.21535666
43	0x3d952609	0.07282645
44	0xbe53f6e3	-0.20699649
45	0x3cdd15a9	0.026987867
46	0xbdc6007f	-0.09668063
47	0x3dd6b63c	0.10483977
48	0x3e94bc13	0.2904974
49	0x3e27e8e5	0.16397436
50	0x3e10aeeb	0.14129226
51	0x3e0953ac	0.13410825
52	0x3d66e037	0.05636617
53	0xbc99991f	-0.018749772
54	0xbdab7596	-0.08372037
55	0xbd2e13f1	-0.042499486
56	0x3da96a57	0.08272236
57	0x3e2b7291	0.16742922
58	0x3e393d6b	0.18089835
59	0x3dcc8e32	0.09988059
60	0x3dd2b00d	0.10287485
61	0xbd83fddc	-0.06444904
62	0x3d508a97	0.05091342
63	0xbe0b79b0	-0.13620639
64	0xbe27020f	-0.16309379
65	0xbc5f6645	-0.013635223
66	0xbda479bf	-0.08031034
67	0xbd652f98	-0.055953592
68	0xbdb20988	-0.08693224
69	0xbd3a54c1	-0.045490984
70	0x3d07140e	0.03297811
71	0x3c0e694e	0.008692099
72	0xbd592eb0	-0.05302304
73	0xbccaf5c3	-0.024775391
74	0x3d823d8b	0.06359395
75	0xbd5eb4e8	-0.054371744
76	0xbd75eb98	-0.060039133
77	0xbd208274	-0.03918691
78	0x3d81f836	0.063461706
79	0x3da1fabb	0.07909151
80	0xbce797bf	-0.0282706
81	0xbe19ee8b	-0.15032403
82	0x3bccd116	0.006250511
83	0xbde13157	-0.10995739
84	0x3babb671	0.0052402546
85	0x3e0548e2	0.13016084
86	0x3d9cf32b	0.07663568
87	0xbd0c0c0c	-0.034191176
88	0xbd3d368b	-0.046194594
89	0xbd2ead1c	-0.04264556
90	0x3daf24eb	0.085519634
91	0x3da55d53	0.08074441
92	0x3db1bd3f	0.08678674
93	0x3da4608e	0.08026229
94	0x3a5e48ad	0.00084794575
95	0x3e13ecdc	0.14445823
96	0xbd47bc94	-0.048763826
97	0xbe0bd5ca	-0.13655773
98	0xbe52ca54	-0.20584995
99	0xbde67e3e	-0.112545475
100	0x3c8e51ac	0.017372929
101	0x3e042c79	0.1290759
102	0x3d1995dc	0.037496433
103	0xbd4546c8	-0.048163205
104	0x3bfca7c7	0.0077104303
105	0x3de176a8	0.1100896
106	0x3cf25ab9	0.029584276
107	0x3e054edf	0.13018368
108	0x3d9d96e1	0.076947935
109	0x3d520ae3	0.051279914
110	0xbe1c3c99	-0.15257491
111	0xbca40c48	-0.020025387
112	0xbdd7ddd5	-0.10540358
113	0x3d05f0f2	0.032700486
114	0x3cac1c68	0.021009639
115	0x3e21dfef	0.1580808
116	0x3db6f7fa	0.089340165
117	0x3d92926f	0.07156836
118	0x3e091542	0.13387015
119	0x3e494bc6	0.19657812
120	0xbd9169ec	-0.07100281
121	0xbe37c4e2	-0.17946199
122	0xbe64d865	-0.22348173
123	0xbe169507	-0.14705287
124	0x3d4d2b71	0.050090257
125	0x3e33edc9	0.17571177
126	0x3d060414	0.032718733
127	0x3d85a677	0.06525891
128	0xbdcb6665	-0.099316396
129	0x3b57ea67	0.0032946111
130	0xbe24d489	-0.160967
131	0x3db285e4	0.08716944
132	0xbe2a51c7	-0.16632758
133	0x3e9c48b0	0.30524206
134	0xbdcb4f24	-0.09927204
135	0x3e1d5167	0.15363084
136	0x3b79e651	0.0038131664
137	0xbc82a1c4	-0.015946276
138	0x3cc944c8	0.02456893
139	0xbc96cf63	-0.018409437
140	0xbe4e2c3f	-0.20134066
141	0xbd936e7f	-0.0719881
142	0xbde4c497	-0.11170309
143	0x3b2ee997	0.0026689523
144	0x3e09589c	0.13412708
145	0xbde405df	-0.11133932
146	0xbbc36d8a	-0.005963986
147	0xbd7fa59d	-0.0624138
148	0x3d9fdf97	0.07806318
149	0xbb83bf74	-0.0040206257
150	0x3dbd547b	0.09244629
151	0x3d8e182b	0.069382034
152	0xbcb31d53	-0.021864569
153	0xbc669cc2	-0.01407546
154	0xbc191b97	-0.009344957
155	0xbd2993c4	-0.041400686
156	0xbca79f5a	-0.020461727
157	0x3e01b594	0.12666923
158	0xbd022bcf	-0.03178006
159	0x3e121470	0.14265609
160	0x3cdf68be	0.027271625
161	0x3e539d3e	0.20665452
162	0xbd449ee1	-0.04800308
163	0xbda1ed17	-0.079065494
164	0x3e20c4bf	0.15700053
165	0x3e2057dc	0.15658516
166	0x3e014a24	0.12625939
167	0x3d992805	0.07478336
168	0x3dce6f90	0.100798726
169	0x3e75e005	0.24011238
170	0x391ef45c	0.00015159085
171	0xbcc1f9f3	-0.023678755
172	0xbcd7fb1e	-0.02636486
173	0xbd792391	-0.060824934
174	0xbd33e063	-0.043915164
175	0xbd025727	-0.031821396
176	0x3d8f56ce	0.069989786
177	0x3c24f3b4	0.010067869
178	0xbcf23ae7	-0.029569102
179	0x3c8c4d08	0.017126575
180	0x3dd3ff69	0.1035145
181	0x3c9f9da7	0.019484354
182	0x3d73f659	0.059561107
183	0xbd8beb7f	-0.06832027
184	0xbd82d9ea	-0.0638922
185	0x3d15f98f	0.03661495
186	0x3c683ccd	0.014174652
187	0x3de02571	0.109446414
188	0x3e289c31	0.16465832
189	0x3e3fb433	0.18721084
190	0x3dde5e64	0.10857847
191	0x3e9bce1f	0.30430695
192	0xbdae76fe	-0.0851879
193	0xbd781502	-0.06056691
194	0xbe06a3e6	-0.1314846
195	0x3cc665ee	0.024218526
196	0x3dd2d035	0.102936186
197	0x3dae899c	0.08522341
198	0xbc9f1819	-0.01942067
199	0x3e1c149b	0.15242235
200	0x3e0501f0	0.1298902
201	0x3e6dcba0	0.23222208
202	0x3e71ca07	0.23612224
203	0x3e759e0d	0.23986073
204	0xbe57195b	-0.21005766
205	0xbe3828e0	-0.17984343
206	0xbd8d817c	-0.06909463
207	0xbe8dc18a	-0.2768672
208	0xbd8a3b06	-0.06749539
209	0xbe477793	-0.19479208
210	0x3cd4b005	0.025962839
211	0xbd4db545	-0.0502217
212	0x3c1eea9b	0.009699489
213	0x3d9ac59f	0.075572245
214	0x3e22d054	0.15899783
215	0x3c6e43e0	0.01454255
216	0xbe0fe405	-0.14051826
217	0xbe768998	-0.24075925
218	0xbdc22311	-0.09479345
219	0xbe31dd52	-0.17369583
220	0x3e63d5d0	0.22249532
221	0x3e5eaa90	0.21744752
222	0x3d39db18	0.04537496
223	0x3e898e4b	0.26866373
224	0xbe05dbcc	-0.13072127
225	0xbd3b8c06	-0.045787834
226	0xbe5e8bb5	-0.21732982
227	0xbd3245bb	-0.04352353
228	0x3c814b65	0.015783021
229	0xbd729581	-0.05922461
230	0x3cc3c9cd	0.023899937
231	0xbd4046a4	-0.04694237
232	0x3d357875	0.04430433
233	0x3df04d2a	0.11733468
234	0x3e6ef247	0.23334609
235	0x3dd23511	0.10264028
236	0x3bfbb4ae	0.007681451
237	0x3df8b07b	0.12143036
238	0x3e09868a	0.13430229
239	0x3c835c2d	0.016035164
240	0x3e59e615	0.21279176
241	0x3d0e3e57	0.03472742
242	0x3e44e223	0.1922689
243	0x3dcf5bbc	0.10124919
244	0xbbab06ee	-0.005219332
245	0x3e3b44cf	0.18287967
246	0x3ddf2739	0.10896153
247	0x3ddb8d63	0.10720327
248	0xbdcd06a5	-0.10011033
249	0xbe1cf26b	-0.1532685
250	0xbd3ff50e	-0.04686456
251	0x3cd72e3b	0.026267162
252	0x3e444a2a	0.19168916
253	0x3d5931bd	0.05302595
254	0x3e2649b0	0.16239047
255	0x3e61ff60	0.22070074

unet.ups.2.bias f4 [16]
0	0x3d36daec	0.044642374
1	0xbf0ad4e8	-0.5423112
2	0xbeafc12c	-0.34327066
3	0x3dd21050	0.102570176
4	0xbd475774	-0.048667386
5	0xbe2b1deb	-0.16710632
6	0xbe7e26e4	-0.24819523
7	0x3d9df3c8	0.07712513
8	0x3f38631b	0.7202622
9	0x3d435aac	0.047693893
10	0xbf760dc5	-0.9611476
11	0x3dc2e677	0.09516614
12	0x3e745885	0.23861893
13	0x3dfdf99c	0.12401125
14	0x3e8b1043	0.27160844
15	0xbe38fa5a	-0.18064252

unet.ups.3.conv.0.weight f4 [16, 32, 3, 3]
0	0x3d9c1795	0.076216854
1	0x3d858603	0.06519701
2	0x3d32890d	0.043587733
3	0x3d0dcb88	0.03461793
4	0x3cb22e0a	0.021750469
5	0xbd681224	-0.056657925
6	0x3d55f83c	0.052238688
7	0x3d312327	0.043246415
8	0x3b8d71bb	0.0043165362
9	0x3d22fed2	0.039793797
10	0x3c68d43d	0.014210758
11	0xbd599b1a	-0.053126432
12	0xbbd73398	-0.0065674298
13	0xbd8d4185	-0.068972625
14	0xbd9bc8ed	-0.07606683
15	0xba89499d	-0.0010474209
16	0xbd7cb929	-0.06170002
17	0xbdd8fc52	-0.10595001
18	0xb94e3ff7	-0.0001966952
19	0x3c504c2a	0.012713471
20	0xbc50e67d	-0.012750265
21	0x3c71ec21	0.01476577
22	0x3cad3a23	0.021145886
23	0x3c0ee7e7	0.008722282
24	0xbd3187b8	-0.043342322
25	0x3cac25a8	0.02101405
26	0x3be9e109	0.007137422
27	0xbc2250f6	-0.009906998
28	0xbd82c687	-0.06385522
29	0x3ab52afe	0.0013822017
30	0xbb44eb3c	-0.0030047437
31	0xbd8a219e	-0.06744693
32	0xbd2ea0a2	-0.04263366
33	0x3d32c9fc	0.04364966
34	0xbd1c058c	-0.038091227
35	0x3be6b07a	0.0070400806
36	0xbc52c972	-0.012865411
37	0xbc4f92d9	-0.012669289
38	0xbd6a4a33	-0.05719967
39	0xbce0b4e5	-0.027430007
40	0xbcd66c2b	-0.026174625
41	0xbbd8c8cd	-0.006615734
42	0xbc473912	-0.012159603
43	0xbd08d4d4	-0.033406094
44	0xbcacdf3e	-0.021102544
45	0x3d448849	0.047981534
46	0x3d4227bf	0.047401186
47	0x3c850cdf	0.016241489
48	0xbc9350bb	-0.017982831
49	0x3c3e4878	0.011613958
50	0x3d231233	0.039812278
51	0x3c7f236e	0.015572412
52	0xbcaeac68	-0.021322444
53	0xbca134a5	-0.019678423
54	0x3d3ed268	0.046587378
55	0x3c5e2bc8	0.013560243
56	0x3d09f8c9	0.033684526
57	0xbcfe3d77	-0.031035168
58	0x3d6326d6	0.05545696
59	0xbccba65a	-0.024859596
60	0xbd0aaa99	-0.0338541
61	0x3bba402f	0.005683921
62	0xbd12fc9c	-0.03588544
63	0xbcbdc9a6	-0.023167443
64	0xbc836c77	-0.016042931
65	0xbb1c6270	-0.0023862384
66	0x3c542c4f	0.012950017
67	0x3c2f698d	0.010706318
68	0x3c705c99	0.0146705145
69	0xbc8a1f3d	-0.016860599
70	0xba0c6fd6	-0.0005357241
71	0x3d9a6072	0.07537927
72	0x3dadd955	0.084887184
73	0x3c32d711	0.010915534
74	0x3d2dfdc4	0.042478338
75	0x3c9b3d98	0.018950269
76	0x3dbe0eee	0.09280191
77	0x3dbaeb06	0.091268584
78	0x3d6230d0	0.055222332
79	0x3c8f16f5	0.017467001
80	0x3db332ca	0.087499216
81	0xbd8a9a71	-0.067677386
82	0x3caf24e4	0.021379896
83	0xbd74402b	-0.059631508
84	0x3d2951e9	0.04133788
85	0xbccd02e7	-0.025025798
86	0x3c84fbab	0.016233286
87	0x3ce63f71	0.028106423
88	0xbc5afe69	-0.01336632
89	0xbd7f13be	-0.062274687
90	0xbd857f38	-0.06518406
91	0x3d312caf	0.043255504
92	0xbd8f85e5	-0.0700796
93	0xbda97a50	-0.082752824
94	0xbd471b89	-0.048610244
95	0xbd24de08	-0.040250808
96	0xbd17cecf	-0.037062462
97	0xbd2ad444	-0.04170634
98	0xbdcf1df5	-0.10113136
99	0x3be133dc	0.006872637
100	0x3cbdb731	0.023158642
101	0xbda71756	-0.08158748
102	0xbd131ca6	-0.035915993
103	0x3bf944e2	0.0076070884
104	0xbd0340c3	-0.032044183
105	0x3ccb22a2	0.024796788
106	0xbd6f9c0e	-0.058498435
107	0xbc9c0fdb	-0.01905053
108	0xbcc44b61	-0.023961725
109	0x3d06f0f8	0.03294465
110	0x3d5c4837	0.053779807
111	0x3d207d87	0.039182212
112	0x3d3d56d8	0.0462254
113	0x3d624be0	0.05524814
114	0x3c7f7d18	0.0155937895
115	0x3d8d7da9	0.069087334
116	0x3cb214b0	0.02173838
117	0xbd2d4b47	-0.04230812
118	0xbbd30743	-0.0064400746
119	0xbcc61b87	-0.024183048
120	0x3c9f0e09	0.019415872
121	0xbd800dd9	-0.06252641
122	0x3c22d7f3	0.009939182
123	0x3c784a1a	0.015154386
124	0xbd29053b	-0.041264754
125	0x3d1e2bcc	0.038615987
126	0x3cbde600	0.023180962
127	0xbd3ac386	-0.045596622
128	0x3b5fd985	0.0034156751
129	0xbc915de9	-0.017744975
130	0xbcc099d4	-0.023510851
131	0xbc2ae385	-0.010430221
132	0xbd104294	-0.035219744
133	0xba31e6b7	-0.00067863934
134	0xbcfeeda8	-0.031119183
135	0x3d96e022	0.07366969
136	0xbc820d14	-0.015875377
137	0xbd129cb9	-0.035793994
138	0x3cb9650f	0.022631196
139	0x3d39a7a4	0.04532589
140	0xbd1488e4	-0.03626336
141	0x3d411f47	0.04714897
142	0xbc94c348	-0.018159524
143	0xbc905184	-0.017616995
144	0x3c859092	0.016304288
145	0x3d13daa3	0.03609718
146	0x3de6909b	0.1125805
147	0xbc2828b4	-0.010263611
148	0xbc386f96	-0.011257073
149	0x3d83064a	0.06397684
150	0xbb2ff60b	-0.0026849534
151	0x3ccac579	0.024752365
152	0x3e1cf13b	0.15326397
153	0xbd030640	-0.031988382
154	0xbd921122	-0.07132174
155	0xbd75a12d	-0.059968162
156	0xbd38fbbb	-0.045161944
157	0xbc3856d4	-0.01125117
158	0xbd09c7af	-0.0336377
159	0xbcb39968	-0.021923736
160	0xbdb43a80	-0.088002205
161	0xbd0d3985	-0.034478683
162	0x3ea500b2	0.32227093
163	0x3e4da14e	0.20081064
164	0x3e8f9df0	0.28050184
165	0x3ebb375c	0.36565673
166	0x3cffce56	0.031226318
167	0x3e85efdf	0.2615957
168	0x3ea85ca2	0.32883173
169	0x3e1085e6	0.14113578
170	0x3e3ee5ca	0.18642345
171	0x3e069dcb	0.1314613
172	0x3d25ba4c	0.04046087
173	0x3d9e1d6a	0.07720454
174	0x3d71f94b	0.059075635
175	0x3d11f2e2	0.03563202
176	0x3cf43a45	0.029812941
177	0x3dd1d230	0.10245168
178	0x3d344fb3	0.04402132
179	0xbceed48a	-0.02915408
180	0x3d87f3c9	0.06638295
181	0x3e00e415	0.12587006
182	0x3da402df	0.0800836
183	0x3dc3ad14	0.095544964
184	0x3d336344	0.04379584
185	0x3d0153e0	0.03157413
186	0x3e07dfac	0.13268918
187	0x3d8cfc59	0.06884069
188	0x3d70d70d	0.05879884
189	0x3d988be2	0.074485555
190	0x3de00688	0.10938746
191	0x3c6f1144	0.014591519
192	0x3d88c32d	0.06677852
193	0x3d742d06	0.05961325
194	0x3d91a932	0.071123496
195	0x3d5e4cbd	0.054272402
196	0x3d91aa4e	0.07112561
197	0x3d3f43dc	0.046695575
198	0xbe155a9c	-0.14585346
199	0xbddb095a	-0.10695143
200	0xbe253740	-0.16134357
201	0xbe0f16ae	-0.13973495
202	0xbd7865ff	-0.060644146
203	0xbe0f12b7	-0.13971983
204	0xbe3427ce	-0.1759331
205	0xbe5c4228	-0.21509612
206	0xbe6ea629	-0.23305573
207	0x3e074f72	0.132139
208	0x3db6b15f	0.089205496
209	0x3d7c1f90	0.061553538
210	0x3e37828e	0.17920896
211	0x3da595b8	0.08085197
212	0x3cd5ae7a	0.026084173
213	0x3e11c956	0.1423696
214	0x3d1a5a1e	0.0376836
215	0x3c254284	0.010086659
216	0xbdcd9f8d	-0.100401975
217	0xbcdc3fad	-0.026885832
218	0x3bdbbcff	0.0067058797
219	0xbde0dc6b	-0.109795414
220	0xbdc3e609	-0.0956536
221	0x3d373567	0.044728663
222	0xbd271b2a	-0.04079739
223	0x3d82757a	0.06370063
224	0x3ce87fd9	0.028381275
225	0xbe3d7237	-0.18500601
226	0xbe265cff	-0.16246413
227	0xbe42b290	-0.19013429
228	0xbe182b03	-0.14860158
229	0xbd27c9c7	-0.040963914
230	0xbe1436c7	-0.14474021
231	0xbe7b43e9	-0.24537624
232	0xbe6c2862	-0.2306228
233	0xbe658540	-0.22414112
234	0x3aab038f	0.0013047325
235	0x3debf8e5	0.11522082
236	0x3d15edd4	0.036603764
237	0x3d316e2b	0.043317955
238	0x3dd112d5	0.1020867
239	0x3b922c39	0.004460838
240	0x3d20905c	0.03920017
241	0x3ce69ec6	0.028151881
242	0x3cdf0ca0	0.0272277
243	0xbdc55559	-0.096354194
244	0xbdc821d1	-0.09772075
245	0xbdbc0103	-0.091798805
246	0xbc7fd062	-0.015613647
247	0xbc930f9e	-0.017951783
248	0xbdcf2d0e	-0.101160154
249	0xbd9afcbb	-0.07567736
250	0xbe5a2fae	-0.21307251
251	0xbe43ee40	-0.19133854
252	0x3e1b1e51	0.15148284
253	0x3df8bfbc	0.121459454
254	0x3db4664f	0.08808576
255	0x3e121d95	0.14269097

unet.ups.3.conv.0.bias f4 [16]
0	0xbcc92378	-0.024553046
1	0x3d92ce07	0.07168203
2	0x3c186f74	0.009303916
3	0xbd4e05f7	-0.050298657
4	0xbd69d40a	-0.05708698
5	0xbd92ee39	-0.071743436
6	0x3c1c15d6	0.0095266905
7	0xbc9c5d6c	-0.019087516
8	0xbb032b37	-0.0020014772
9	0x3cab12b2	0.020882938
10	0xbd920e41	-0.07131625
11	0x3d618a63	0.055063616
12	0xbd5f1c5d	-0.05447041
13	0xbdc0d863	-0.094162725
14	0x3bf55e4b	0.0074880472
15	0x3cb9d1ce	0.02268305

unet.ups.3.conv.1.weight f4 [16]
0	0x3fa7685c	1.3078723
1	0x3fa4ae78	1.2865744
2	0x3fa33236	1.2749698
3	0x3fa17a57	1.261546
4	0x3f9d3a59	1.2283431
5	0x3fa84ff8	1.3149405
6	0x3facf118	1.3511076
7	0x3f90f5b9	1.1324989
8	0x3f944977	1.158492
9	0x3fa430fb	1.2827448
10	0x3f9f6fdf	1.2456015
11	0x3fa3f749	1.280984
12	0x3fb0d9e0	1.381649
13	0x3f9bef76	1.2182453
14	0x3fb4de14	1.4130273
15	0x3fa2bc90	1.2713795

unet.ups.3.conv.1.bias f4 [16]
0	0x3e9dbe04	0.30809033
1	0x3f1f0bc9	0.6212736
2	0x3edd245d	0.43191805
3	0x3ed1d04f	0.4097924
4	0x3ecac2c8	0.3960173
5	0x3ea05da6	0.31321448
6	0x3ee949fc	0.45564258
7	0x3d6a67ef	0.057228025
8	0x3ea15619	0.31511
9	0x3e9e759d	0.30949107
10	0x3e8da333	0.27663574
11	0x3e75dc1b	0.24009745
12	0x3ef4b91b	0.47797474
13	0x3eb82936	0.3596894
14	0x3f1d6ab4	0.6149094
15	0x3e11ff80	0.14257622

unet.ups.3.conv.1.running_mean f4 [16]
0	0xbf21c78c	-0.6319511
1	0xbf183edd	-0.5947092
2	0xbe24f1d8	-0.16107881
3	0xbfbd0228	-1.4766283
4	0xc014762a	-2.3197122
5	0xbf2ce796	-0.6754087
6	0xbfff93e9	-1.9967014
7	0xbfcb27bb	-1.58715
8	0xc00fb950	-2.2456856
9	0x3f5ed798	0.8704772
10	0xbee2d591	-0.44303563
11	0x3f181662	0.59409153
12	0xbff0ec11	-1.8822042
13	0x3fabaef7	1.341277
14	0xbdf95b21	-0.121755846
15	0xbfb7d1c2	-1.4360888

unet.ups.3.conv.1.running_var f4 [16]
0	0x410b5007	8.707038
1	0x409ff54a	4.9986925
2	0x4113324d	9.19978
3	0x40bd26bb	5.910978
4	0x40e4536f	7.135185
5	0x41251240	10.316956
6	0x4064d16b	3.5752819
7	0x40a764df	5.2310634
8	0x4118d638	9.5522995
9	0x40ff86fd	7.985228
10	0x408c14e0	4.377548
11	0x40ac7160	5.3888397
12	0x40cdd599	6.432324
13	0x4125014f	10.3128195
14	0x406b1e25	3.6737149
15	0x40f37d36	7.6090345

unet.downs.0.conv.0.weight f4 [16, 3, 3, 3]
0	0xbdc84565	-0.09778861
1	0x3ddeeb6d	0.10884748
2	0xbe3c606f	-0.18396161
3	0xbd7e1efe	-0.062041275
4	0x3d30e0a6	0.04318299
5	0xbc4b1d0e	-0.012397064
6	0x3e15e85d	0.14639421
7	0x3dcd30db	0.10019084
8	0x3db14112	0.08654989
9	0xbe5b0bfc	-0.2139129
10	0xbe886361	-0.2663832
11	0xbdd2831e	-0.10278915
12	0xbe0e8e9e	-0.13921592
13	0x3e5b9986	0.21445283
14	0x3d85b105	0.065279044
15	0xbdf481dc	-0.11938831
16	0xbe09d8d1	-0.13461615
17	0x3d2b74f8	0.041859597
18	0xbddb788f	-0.10716354
19	0x3cfd907c	0.030952685
20	0xbd8f1c4f	-0.06987821
21	0x3d0d3eed	0.03448384
22	0x3e00029a	0.12500992
23	0x3e2105bc	0.15724844
24	0xbe448d69	-0.19194569
25	0xbca5a219	-0.020218896
26	0x3e676d05	0.22600181
27	0x3d74319c	0.059617624
28	0x3e327663	0.17427973
29	0x3dda7f0b	0.10668763
30	0x3e18e053	0.14929323
31	0x3dfb9bde	0.12285589
32	0x3cd6e7fc	0.026233666
33	0xbd377409	-0.044788394
34	0x3da486f5	0.080335535
35	0x3e14218c	0.14465922
36	0xbe5a3387	-0.21308719
37	0x3db99727	0.09062033
38	0xbdccfe6c	-0.100094646
39	0xbe03f8fe	-0.12887952
40	0xbe31135e	-0.17292544
41	0xbe813084	-0.25232327
42	0xbe15de38	-0.14635551
43	0x3c11e019	0.008903527
44	0xbde2b044	-0.11068776
45	0xbe177429	-0.14790405
46	0x3dbf930a	0.09354217
47	0xbdba923d	-0.09109924
48	0x3d232599	0.039830778
49	0x3d8bdb9d	0.06828997
50	0x3db30e79	0.08742995
51	0x3dbbfbc5	0.091788806
52	0x3e0f7bf3	0.14012127
53	0xbdb2f8ee	-0.08738886
54	0xbe736cb8	-0.23771942
55	0xbe070bc4	-0.13188082
56	0xbe31f2d4	-0.17377788
57	0xbe14d8a0	-0.14535761
58	0xbddc041c	-0.10742971
59	0xbe2c5412	-0.16828945
60	0x3dab976b	0.0837849
61	0x3d1091d3	0.03529532
62	0xbe1914c3	-0.14949326
63	0x3e3fc36a	0.18726888
64	0xbda0bb50	-0.07848227
65	0x3e1aa22c	0.15100926
66	0x3e36acf2	0.17839411
67	0x3e1b9394	0.15193015
68	0xbd933915	-0.07188622
69	0x3d392719	0.045203302
70	0x3d475110	0.04866129
71	0x3e1e58e0	0.1546359
72	0x3e419466	0.18904266
73	0x3d616085	0.05502369
74	0x3e066c92	0.13127354
75	0x3d289812	0.04116065
76	0x3d054ceb	0.032544058
77	0x3d69392c	0.05693929
78	0xbda027ff	-0.07820129
79	0x3cb99e94	0.022658624
80	0x3e0f91b0	0.14020419
81	0xbe466e76	-0.19378075
82	0x3dc0873b	0.09400793
83	0x3d525574	0.051351026
84	0x3d156639	0.03647444
85	0x3afabf55	0.0019130508
86	0x3d2e4335	0.042544562
87	0xbe210c7d	-0.1572742
88	0xbe5da370	-0.21644378
89	0xbe719a1e	-0.23593947
90	0xbe0c4f77	-0.13702188
91	0xbd567410	-0.05235678
92	0xbdcf8d3f	-0.101343624
93	0x3c85cceb	0.016333064
94	0xbdbd555f	-0.09244799
95	0xbcc18334	-0.023622133
96	0xbe1168e8	-0.14200175
97	0x3e01b05b	0.1266493
98	0x3cea19f9	0.028576838
99	0x3e723eeb	0.23656814
100	0x3e6e81a4	0.23291641
101	0x3e221d6e	0.15831539
102	0xbcb66aa5	-0.022267649
103	0x3e1723d3	0.1475976
104	0x3e0808ba	0.13284579
105	0x3deb4c9d	0.11489222
106	0x3dfd9663	0.123821996
107	0xbdee88e3	-0.11647203
108	0xbc7c7d3d	-0.0154107185
109	0x3e430521	0.19044925
110	0xbe875625	-0.2643291
111	0x3e91f661	0.28508285
112	0xbe3003cc	-0.17188948
113	0x3d9013aa	0.070350006
114	0x3bb4b809	0.0055151028
115	0xbea76625	-0.32695118
116	0x3e117b15	0.14207108
117	0x3d8f32b4	0.06992093
118	0x3d476d09	0.04868797
119	0x3d7f584e	0.062340073
120	0x3e4dcf59	0.20098628
121	0xbe536d6e	-0.20647213
122	0xbda4d031	-0.08047522
123	0x3cf941b6	0.030426841
124	0xbe43f719	-0.19137229
125	0x3e068a62	0.13138726
126	0xbe143f56	-0.14477286
127	0x3c5162ff	0.01277995
128	0xbcd68e93	-0.026191032
129	0x3ac551f7	0.0015054335
130	0xbd8c1772	-0.06840409
131	0x3c075018	0.008258842
132	0x3d302a1b	0.043008905
133	0x3c7f1402	0.015568735
134	0x3db36d48	0.08761078
135	0xbda7c8f7	-0.08192628
136	0x3b7cdaca	0.0038582557
137	0x3e2bc33e	0.16773698
138	0xbe40561e	-0.18782851
139	0xbce67faf	-0.028137056
140	0x3e029822	0.12753347
141	0x3a56052e	0.0008164224
142	0xbbac38dd	-0.005255802
143	0xbca1d102	-0.019752983
144	0x3bf3c70a	0.007439499
145	0xbdf690eb	-0.1203936
146	0xbe5427b1	-0.20718266
147	0xbe4157de	-0.18881175
148	0x3ccdf0b7	0.025139196
149	0x3e2cb93f	0.16867541
150	0x3e1e8502	0.15480426
151	0x3d57d1ef	0.052690443
152	0x3d98a466	0.074532315
153	0xbe7043e7	-0.23463403
154	0xbe58bbeb	-0.21165435
155	0xbd74295d	-0.05960976
156	0xbdb77c1b	-0.08959218
157	0x3c85cc7e	0.016332861
158	0x3e2d3b9e	0.16917273
159	0x3de76b41	0.11299754
160	0x3e70f92b	0.2353255
161	0x3e08cc86	0.1335927
162	0x3dbc1f8a	0.09185703
163	0xbd1c01ff	-0.03808784
164	0x3e3e38a4	0.18576294
165	0xbe8c0d25	-0.27353778
166	0x3d9b6785	0.07588104
167	0xbcf841d5	-0.030304829
168	0xbe5d9e53	-0.21642427
169	0x3d8ab9ca	0.06773718
170	0x3e24b39e	0.16084144
171	0xbd9308e0	-0.07179427
172	0xbe0201bb	-0.12695973
173	0x3ddec839	0.10878033
174	0x3dc9de8c	0.098569006
175	0x3d55bbf7	0.05218121
176	0x3e26497e	0.16238973
177	0xbe3b2ddf	-0.18279217
178	0xbe1d06e9	-0.15334667
179	0x3db83841	0.089951046
180	0xbde61eb2	-0.112363234
181	0x3e03e16d	0.12878962
182	0x3e03a6cb	0.12856595
183	0xbe87ffad	-0.26562253
184	0xbc701381	-0.014653088
185	0x3df7f14b	0.1210657
186	0xbe59472b	-0.21218555
187	0x3d87bf59	0.066282935
188	0x3d990dc0	0.07473326
189	0x3d687666	0.05675354
190	0xbe1178b4	-0.14206201
191	0x3dbb9424	0.09159115
192	0xbe06523f	-0.13117312
193	0xbe033975	-0.12814887
194	0x3e063997	0.13107906
195	0x3de41e36	0.11138575
196	0x3dec3618	0.11533755
197	0xbe448e0a	-0.19194809
198	0x3e0437c0	0.12911892
199	0xbdc44edc	-0.09585354
200	0x3d5072d2	0.05089075
201	0xbe1b9514	-0.15193588
202	0x3e76e490	0.24110627
203	0x3de09d45	0.10967497
204	0x3e112694	0.14174873
205	0x3e874bca	0.2642501
206	0x3d1d9dd5	0.0384806
207	0xbde25cdd	-0.110528685
208	0xbe70168d	-0.23446102
209	0x3e46f47b	0.194292
210	0xbe3dbc21	-0.18528797
211	0x3e480740	0.19534016
212	0x3cafc72a	0.021457274
213	0xbe62e3c5	-0.221572
214	0xbd0402f8	-0.032229394
215	0xbe0500c5	-0.12988575
216	0xbe4fb8ae	-0.20285293
217	0x3c11d89c	0.008901741
218	0xbe727f92	-0.23681477
219	0x3d89dc6b	0.067314945
220	0x3c3ae390	0.011406794
221	0xbc5d0ece	-0.013492299
222	0xbd8b99da	-0.06816454
223	0x3da72cd9	0.08162851
224	0xbe38f253	-0.1806119
225	0x3d17a8d5	0.037026245
226	0x3e190093	0.14941625
227	0x3b9bc477	0.004753645
228	0xbd29b282	-0.041430004
229	0x3e34be86	0.17650804
230	0xb9ccd8ec	-0.00039071532
231	0x3cc86407	0.02446176
232	0x3dfff6f7	0.12498277
233	0xbd2d7526	-0.04234805
234	0xbd28b716	-0.04119023
235	0xbdeefa26	-0.11668806
236	0xbdf88e7b	-0.12136551
237	0xbdc6586c	-0.09684834
238	0xbe46691f	-0.19376038
239	0xbe135ff2	-0.14392069
240	0xbce38719	-0.02777438
241	0xbd58e089	-0.05294851
242	0xbec99efa	-0.39379102
243	0x3dbba613	0.091625355
244	0x3d3d2322	0.046176083
245	0x3e32a32e	0.1744506
246	0x3e82070f	0.2539601
247	0x3e1af718	0.15133321
248	0x3e0b5fad	0.13610716
249	0x3e16e2e4	0.1473499
250	0x3d77cd40	0.060498476
251	0x3dca77f6	0.09886162
252	0xbd02e6df	-0.031958457
253	0xbe435d49	-0.19078554
254	0x3cbd443f	0.023103831
255	0xbdc9c5e4	-0.09852198

unet.downs.0.conv.0.bias f4 [16]
0	0x3e24ea84	0.16105086
1	0x3d4b41e2	0.049623378
2	0x3de0511c	0.109529704
3	0xbeb0d48a	-0.34537154
4	0x3e9dde98	0.30833888
5	0x3d69dad1	0.057093445
6	0x3e48fc78	0.19627559
7	0x3c22243b	0.009896333
8	0xbdddebfe	-0.108360276
9	0xbd26f7e8	-0.040763766
10	0xbdce2a69	-0.10066683
11	0x3db2bfb8	0.08727974
12	0x3da86d50	0.08223975
13	0xbe1e857f	-0.15480612
14	0x3d170fcb	0.036880296
15	0x3de1bbb5	0.110221304

unet.downs.0.conv.1.weight f4 [16]
0	0x3f812e7a	1.0092309
1	0x3f6608b7	0.8985705
2	0x3f75f8ad	0.96082574
3	0x3f7cce5d	0.98752385
4	0x3f6d6bff	0.92742914
5	0x3f796f35	0.97435313
6	0x3f8a7fdf	1.0820273
7	0x3f75ebb2	0.9606277
8	0x3f7ba0a4	0.98291993
9	0x3f4f9dc7	0.81100124
10	0x3f5dd0b3	0.86646575
11	0x3f3ce500	0.73786926
12	0x3f836972	1.0266554
13	0x3f70b756	0.9402975
14	0x3f81375c	1.0095019
15	0x3f7f732c	0.99785113

unet.downs.0.conv.1.bias f4 [16]
0	0x3d743bbb	0.059627276
1	0xbc74552a	-0.014912883
2	0xbe481340	-0.19538593
3	0xbd8c3be3	-0.0684736
4	0x3e867ee2	0.2626868
5	0x3c9a1522	0.018808905
6	0x3ba7ea5b	0.005124373
7	0x3e519ccc	0.2046997
8	0x3d64cd8b	0.055860084
9	0x3e2d688e	0.16934416
10	0x3ea6ce7f	0.3257942
11	0x3ccb94a0	0.024851143
12	0xbc1fdefb	-0.0097577525
13	0x3e9d5d0f	0.3073506
14	0x3e48552a	0.19563738
15	0x3e44d3da	0.1922144

unet.downs.0.conv.1.running_mean f4 [16]
0	0x3c9c6b64	0.019094177
1	0x3d0c43f1	0.03424448
2	0x3e5a27b7	0.21304213
3	0xbec4476f	-0.3833575
4	0x3e906bd8	0.28207278
5	0x3d7231c6	0.0591295
6	0x3e2c2a58	0.16813028
7	0x3dbac121	0.09118868
8	0xbf004b72	-0.5011512
9	0x3d67d7c7	0.056602266
10	0xbdc4c9cd	-0.09608803
11	0x3e670ae7	0.22562753
12	0x3c7a602c	0.015281718
13	0xbd98d614	-0.07462707
14	0x3d0828ed	0.033242155
15	0x3d7409ed	0.05957978

unet.downs.0.conv.1.running_var f4 [16]
0	0x3b8f33cd	0.004370189
1	0x3ae31582	0.0017325135
2	0x3b797df6	0.0038069463
3	0x3b20dde4	0.002454632
4	0x3a4c73d8	0.00077992445
5	0x3b0bcb2a	0.0021330812
6	0x3b4e0c1d	0.0031440326
7	0x3ad1f580	0.0016018599
8	0x3d234814	0.03986366
9	0x3bc58024	0.0060272384
10	0x3ae0058c	0.0017091497
11	0x3c02894e	0.007967306
12	0x3baf01e8	0.0053408034
13	0x3b42a41b	0.0029699865
14	0x3a844cba	0.0010093667
15	0x3a97399a	0.0011537552

unet.downs.1.conv.0.weight f4 [32, 16, 3, 3]
0	0x3e890e0e	0.26768535
1	0x3e1e1a6f	0.15439771
2	0x3e4299bf	0.19003962
3	0x3de1e3b1	0.11029757
4	0xbd5a06e1	-0.053229216
5	0x3c42e039	0.011894279
6	0x3b3176bc	0.0027078828
7	0xbe004ed2	-0.12530068
8	0x39e5d06a	0.00043833564
9	0x3d6f354f	0.05840045
10	0x3bb3cdd7	0.0054871845
11	0x3c5ec41a	0.013596559
12	0xbd616284	-0.055025592
13	0xbe388142	-0.18018058
14	0xbd2203b2	-0.039554305
15	0xbd87162e	-0.06596027
16	0xbe2aeabb	-0.16691105
17	0xbd371d8d	-0.044705916
18	0xbe0d6e56	-0.13811621
19	0xbc6b3cc8	-0.014357753
20	0xbd8ceaac	-0.068806976
21	0xbc101ffb	-0.008796687
22	0x3d4849b6	0.04889842
23	0xbc810ddb	-0.015753677
24	0x3d42d868	0.047569662
25	0x3db2e4e7	0.08735066
26	0xbc440362	-0.011963697
27	0x3db71719	0.089399524
28	0xbca00d4b	-0.019537589
29	0xbd82ffe9	-0.06396467
30	0x3d8c848a	0.06861217
31	0xbe06708b	-0.13128869
32	0xbdd735fe	-0.10508345
33	0x3cd003d2	0.025392447
34	0xbddfdd7e	-0.10930918
35	0xbdd282b1	-0.10278834
36	0x3c52b96b	0.01286159
37	0x3d80a7ae	0.06281982
38	0x3d57d57e	0.052693836
39	0x3b63708a	0.003470453
40	0xbcf42f58	-0.029807732
41	0xbd8fb3c4	-0.070167094
42	0xbc899701	-0.016795637
43	0xbd009c61	-0.031399135
44	0xbd8281ad	-0.0637239
45	0x3e6ae9c6	0.2294074
46	0x3de1be4d	0.11022625
47	0xbc8b7981	-0.017025711
48	0xbe2a85ff	-0.16652678
49	0xbe44ea00	-0.19229889
50	0xbc967f67	-0.018371297
51	0xbd08f222	-0.03343404
52	0x3d26a140	0.040681124
53	0xbd50eff5	-0.05101009
54	0xbc7ad1ad	-0.01530878
55	0xbe4308da	-0.19046345
56	0xbe2f9305	-0.17145927
57	0x3d382511	0.044957224
58	0xbdf28828	-0.11842376
59	0xbdce77e7	-0.10081463
60	0x3ca64338	0.020295724
61	0xbb86b697	-0.004111122
62	0x3d102fce	0.03520184
63	0xbd6eeff6	-0.058334313
64	0xbb643067	-0.003481889
65	0xbe4842b1	-0.19556691
66	0xbd91914a	-0.0710779
67	0xbc1f3fc8	-0.0097197965
68	0xbe212e0d	-0.15740223
69	0x3d60c68c	0.05487685
70	0x3cdef8a2	0.027218167
71	0xbd45b232	-0.048265643
72	0xbca35f07	-0.019942774
73	0x3d2ad7ea	0.041709818
74	0x3b8539bb	0.00406572
75	0xbd9a37d0	-0.07530177
76	0xbe26d397	-0.16291653
77	0xbd7e05b8	-0.062017173
78	0xbe21454c	-0.15749091
79	0xbe02cc8a	-0.12773338
80	0xbe318481	-0.17335702
81	0xbb868d8c	-0.004106229
82	0x3d787bd0	0.06066495
83	0xbcf33682	-0.029689077
84	0xbd940acf	-0.07228624
85	0xbd8d1cb2	-0.06890239
86	0x3d6c293f	0.057656523
87	0xbdb4f1c5	-0.088351764
88	0xbd84e327	-0.06488638
89	0xbd40a39c	-0.04703103
90	0x3d981193	0.07425227
91	0x3d5aa19e	0.053376786
92	0x3d676b8b	0.056499045
93	0xbdd8a0e6	-0.10577564
94	0xbe272259	-0.16321696
95	0x3c3ddea3	0.011588725
96	0x3da1744f	0.07883512
97	0x3cb07ead	0.021544779
98	0x3cd3a4d9	0.025835441
99	0x3d26c643	0.04071642
100	0x3d5729a2	0.05252994
101	0x3e1d7dd6	0.15380034
102	0x3dbc0255	0.09180132
103	0x3e16809d	0.146975
104	0x3e0d5d78	0.13805187
105	0x3cec3851	0.028835448
106	0x3dfe5704	0.12418941
107	0x3d43bbf5	0.04778667
108	0x3c13b1b1	0.009014533
109	0x3db89db3	0.09014454
110	0xbc52882d	-0.01284985
111	0xbdccd8a4	-0.100022584
112	0xbce50e01	-0.02796078
113	0xbce32fb6	-0.027732711
114	0x3d21cb5f	0.03950059
115	0x3d72b6fb	0.059256535
116	0x3cb5c85e	0.02219027
117	0xbd0a7096	-0.033798777
118	0xbe02e76c	-0.12783593
119	0xbc6b4aef	-0.014361127
120	0xbd124e1d	-0.035719026
121	0xbdd7deff	-0.1054058
122	0xbdb38b17	-0.08766764
123	0x3d3e12a5	0.0464045
124	0xbc627006	-0.013820654
125	0x3ce32934	0.027729608
126	0x3d891e72	0.0669526
127	0x3df593ad	0.119910575
128	0x3e16d18c	0.14728373
129	0x3d4966f8	0.049170464
130	0xbd1c8ff2	-0.038223214
131	0xbdda3b85	-0.10655884
132	0xbcd98f56	-0.026557606
133	0x3ccabcff	0.024748323
134	0xbdbb732e	-0.09152828
135	0x3dfad514	0.12247673
136	0x3e00ab3f	0.12565325
137	0x3e147adc	0.14499992
138	0xbdb22ad2	-0.086995736
139	0xbd12ff5d	-0.035888065
140	0xbd828d51	-0.0637461
141	0xbe4e179c	-0.20126194
142	0xbe1c2e30	-0.15251994
143	0xbda21790	-0.079146504
144	0x3e952dc8	0.2913649
145	0x3db893f0	0.09012592
146	0x3e0e5935	0.13901217
147	0x3ce65737	0.02811776
148	0x3c6d4043	0.014480653
149	0xbcfca1b0	-0.030838817
150	0x3cd27c75	0.025694111
151	0xbced202d	-0.028946007
152	0xbcac24d2	-0.021013651
153	0x3dc1dc92	0.094658986
154	0x3d0034d8	0.031300396
155	0x3e00f5fd	0.12593837
156	0x3d925a05	0.07146076
157	0x3cdab18a	0.026695985
158	0x3db6d085	0.08926491
159	0x3dbe6476	0.09296505
160	0xbc77642e	-0.015099568
161	0x3e07241e	0.13197371
162	0xbcae39ab	-0.021267733
163	0x3c3cd8fe	0.011526344
164	0xb9d6592a	-0.00040883693
165	0x3c8a2680	0.016864061
166	0x3ceafe82	0.028685812
167	0xbd652c7b	-0.055950623
168	0xbcaf08a9	-0.021366434
169	0xbc3b7592	-0.011441605
170	0x3cf649ff	0.030064581
171	0x3d7e41dd	0.06207453
172	0x3ca87fa9	0.020568686
173	0xbd2d5c21	-0.04232419
174	0x3d4bc637	0.04974958
175	0x3cef3c29	0.029203491
176	0x3d643902	0.05571843
177	0xbcb7526c	-0.022378169
178	0xbd1b62f4	-0.037936166
179	0x3d174bb8	0.036937445
180	0x3ceacf5b	0.028663328
181	0x3c4aaf43	0.012370887
182	0x3bc6e406	0.006069663
183	0xbd7894fc	-0.060688958
184	0xbd9ef56c	-0.07761654
185	0x3c074374	0.008255828
186	0xbd85c9ba	-0.06532617
187	0xbdbabb8e	-0.091178045
188	0xbdc04f0c	-0.09390077
189	0x3e1a2a36	0.15055165
190	0x3dfd9dcc	0.12383613
191	0x3dd0071e	0.101576075
192	0x3c228d56	0.009921392
193	0xbc752c4c	-0.0149641745
194	0xbd1a82ff	-0.037722584
195	0x3d7b9244	0.061418787
196	0xbbc310b9	-0.005952921
197	0x3dda813a	0.10669179
198	0x3d8324e9	0.064035244
199	0xbe0e67c6	-0.13906774
200	0xbe13d911	-0.14438273
201	0xbbc185f7	-0.0059058624
202	0xbd911b01	-0.07085229
203	0xbd2a2522	-0.04153932
204	0xbcabc0e3	-0.020965999
205	0xbdbea8f6	-0.093095705
206	0x3cc5577e	0.024089571
207	0xbd36a134	-0.04458733
208	0xbd9f85a1	-0.077891596
209	0xbdb9a16c	-0.09063992
210	0xbd02e86d	-0.03195994
211	0xbd35a522	-0.044346936
212	0xbd8b10b1	-0.06790293
213	0xbd9cf420	-0.07663751
214	0xbd692ed0	-0.05692941
215	0x3d301efb	0.042998295
216	0x3dbdef0b	0.092741095
217	0xbd61a6b1	-0.05509061
218	0x3df2fcff	0.118646614
219	0xbd9db42a	-0.07700379
220	0xbd74fcd2	-0.05981142
221	0x3d315a03	0.043298732
222	0xbdb720df	-0.089418165
223	0xbd997dfe	-0.07494734
224	0xbdb3f3a1	-0.08786703
225	0xbe0768d2	-0.1322358
226	0x3cba2c82	0.022726301
227	0xbc683a01	-0.014173985
228	0xbca30f7d	-0.019904846
229	0xbca42c09	-0.020040529
230	0xbd38a490	-0.045078814
231	0xbdc14784	-0.09437469
232	0xbd25ac2f	-0.04044741
233	0xbc25037c	-0.0100716315
234	0x3b231f22	0.0024890383
235	0xbd191bcf	-0.037380036
236	0x3c0572c1	0.008145035
237	0xbdba6955	-0.09102122
238	0xbc35c2f7	-0.0110938465
239	0x37c22601	2.31443e-05
240	0xbdab0a2c	-0.083515495
241	0xbb9540be	-0.004554837
242	0x3d4c48e3	0.049874198
243	0x3d490a2c	0.049081966
244	0x3d32b0e9	0.043625746
245	0x3cdf5947	0.02726425
246	0x3c8c9282	0.017159704
247	0xbc87722f	-0.01653394
248	0xbd751272	-0.059832044
249	0x3bc8aae6	0.0061238883
250	0x3d59ba1d	0.053156007
251	0x3d12865c	0.035772666
252	0xbdbbd6d8	-0.091718376
253	0xbdc6201c	-0.09674093
254	0xbddf075f	-0.10890078
255	0xbe417bfe	-0.18894956
